models/model_name.bin (torch, 274263 bytes, 6 tensors)

linear1.weight f4 [256, 4]
0	0xbe0109e8	-0.12601435
1	0xbf798e4a	-0.9748274
2	0xbf5a1e75	-0.85202724
3	0xbe4c9ab8	-0.19980896
4	0xc00b26be	-2.1742396
5	0x3be79f00	0.007068515
6	0xbecf5008	-0.40490746
7	0xbe508a00	-0.20365143
8	0xbec64e68	-0.38731694
9	0xbd9b8c98	-0.075951755
10	0xbf4d0d5b	-0.80098504
11	0xbec7750c	-0.38956487
12	0xc066fc1c	-3.6091375
13	0xc011b130	-2.2764397
14	0xc087d21b	-4.2443976
15	0xc0409b28	-3.00947
16	0x3d0dc4d0	0.034611523
17	0xbe8923c7	-0.26785108
18	0xbf3e6937	-0.74379295
19	0xbebbbeb8	-0.36668944
20	0xbf27912d	-0.65455896
21	0xc02fd722	-2.7475057
22	0xbfc86cf0	-1.5658245
23	0xbe810eeb	-0.25206694
24	0xc053ca9e	-3.3092418
25	0xc04e647e	-3.2248836
26	0xc04eae22	-3.2293782
27	0xc0149119	-2.321356
28	0xbe9a7c42	-0.30172926
29	0xbf3ba364	-0.7329619
30	0xbe8a30f8	-0.26990485
31	0xbe900aa0	-0.28133106
32	0xbeac6bda	-0.33676034
33	0xbeee75dc	-0.46574295
34	0xbf07ac75	-0.52997524
35	0xbeadef61	-0.33971694
36	0xbd8b0f30	-0.06790006
37	0xbda84b4c	-0.08217487
38	0xbe8040c2	-0.25049406
39	0xbef1a9bd	-0.47199813
40	0xbe46d7dc	-0.19418281
41	0xbebbd222	-0.36683756
42	0xbed3c760	-0.4136305
43	0xbe3cad1c	-0.18425411
44	0xbecd6c52	-0.40121704
45	0xbe3c89f0	-0.18411994
46	0xbf4b419e	-0.79397
47	0xbee594e6	-0.44840163
48	0xbe0eb3c0	-0.13935757
49	0xbec024ff	-0.37528226
50	0xbeccb47d	-0.39981452
51	0xbe664cac	-0.22490185
52	0x3ce11100	0.027473927
53	0xbe07b0af	-0.13250993
54	0xbe4783e4	-0.19483906
55	0xbd121507	-0.035664584
56	0xc0483bc2	-3.1286473
57	0xc02c242d	-2.689708
58	0xc04eeee1	-3.23333
59	0xc054df23	-3.3261192
60	0xbce96d20	-0.028494418
61	0xbee6ab0c	-0.45052373
62	0xbe2e7000	-0.17034912
63	0xbeae582c	-0.34051645
64	0xbf241310	-0.6409159
65	0x3e90840b	0.2822574
66	0x3eb021aa	0.34400684
67	0x3eab74d9	0.33487585
68	0xbf27aea3	-0.6550085
69	0xbf35acbd	-0.709667
70	0xbe9e33f9	-0.30899027
71	0xbee4644f	-0.4460778
72	0xc000468c	-2.0043058
73	0xbdd3dc70	-0.103447795
74	0xc0071c6c	-2.1111097
75	0xbefdd618	-0.49577403
76	0xbeb1f5bb	-0.3475779
77	0xbf88737f	-1.0660247
78	0xbf0c6138	-0.54835844
79	0x3d58f187	0.052964713
80	0xbc81c66b	-0.015841683
81	0xbea4089d	-0.3203782
82	0xbf1e5f99	-0.6186462
83	0xbf808177	-1.003951
84	0xbef90d14	-0.4864279
85	0xbed587d2	-0.41705185
86	0xbe446380	-0.19178581
87	0xbea8eed0	-0.329947
88	0xbe35a6ac	-0.17739362
89	0xbefed3da	-0.49771005
90	0xbe9c1c43	-0.30490312
91	0xbec4aece	-0.38414615
92	0xbe2a5b26	-0.16636333
93	0xbf148075	-0.5800851
94	0xbf07dd56	-0.53072107
95	0xbe81d3f7	-0.2535703
96	0xbedb66d0	-0.42851877
97	0xbf088f3e	-0.5334357
98	0xbe7f4da9	-0.24931969
99	0xbe15d814	-0.14633209
100	0xbf0c4435	-0.54791576
101	0xbed69df6	-0.4191739
102	0xbef3807e	-0.4755897
103	0xbd685a6b	-0.056726854
104	0xbe74a610	-0.23891473
105	0xbee30f88	-0.44347787
106	0xbe1092c8	-0.14118493
107	0xbe7bd164	-0.24591595
108	0xc0b0d5cf	-5.5260997
109	0x3f651acb	0.8949401
110	0x408a3544	4.319002
111	0x3f8c350d	1.095369
112	0xbe4bd6a4	-0.19906098
113	0xbf3e31e7	-0.74294895
114	0xbf9d2713	-1.227755
115	0xbf1779ba	-0.59170115
116	0x3d405f16	0.04696568
117	0xbd22188d	-0.039574195
118	0xbf8ebe74	-1.1151872
119	0xbdcf6c58	-0.10128087
120	0xc08dea69	-4.4348645
121	0x4063905d	3.5556862
122	0xc1229493	-10.161273
123	0x408d584a	4.4170275
124	0xbf50b41e	-0.81524837
125	0xbf1d21f4	-0.61379933
126	0xbea1e4f0	-0.31619978
127	0xbf847e50	-1.0351048
128	0xbee7022b	-0.45118842
129	0xbe025f8c	-0.1273176
130	0xbf5404ee	-0.8282002
131	0xbf8981f3	-1.0742782
132	0xbe890a30	-0.26765585
133	0xbf0fc5e8	-0.56161356
134	0xbec41a9f	-0.3830156
135	0xc044f305	-3.0773327
136	0xc03a9cf6	-2.9158301
137	0xc04f5065	-3.239282
138	0xc050c611	-3.262089
139	0xc01b5c6b	-2.4275157
140	0xbee30850	-0.4434228
141	0xbe938f88	-0.28820443
142	0xbe797040	-0.24359226
143	0x3d26ddd0	0.04073888
144	0x3efbbc3d	0.49167052
145	0xbfa7765a	-1.3082993
146	0xc015d1b2	-2.3409238
147	0xbe849ea6	-0.2590229
148	0xbeb7490a	-0.35797912
149	0xbed5001a	-0.4160164
150	0xbeacc484	-0.3374368
151	0xbedd9e10	-0.43284655
152	0xbbb11580	-0.0054041743
153	0xbeeabe5d	-0.4584836
154	0xbea7271f	-0.32647035
155	0xbea7374a	-0.3265937
156	0xbef0b3fc	-0.47012317
157	0xbe21e638	-0.15810478
158	0xbec09668	-0.3761475
159	0xbeff06c8	-0.4980986
160	0xbf511046	-0.81665456
161	0xbf57a7af	-0.8424024
162	0xbe3b95a4	-0.18318802
163	0xbfb640b3	-1.4238495
164	0x3d4d7c26	0.050167225
165	0xbf6949ec	-0.9112842
166	0xbedc887a	-0.43072873
167	0xbe849126	-0.2589199
168	0xc0458435	-3.0861943
169	0xc043239c	-3.0490484
170	0xc05f5c29	-3.49
171	0xc016d723	-2.356881
172	0xbf060f7c	-0.5236738
173	0xbf7636d6	-0.96177423
174	0xbf856e16	-1.042422
175	0xbf116ef0	-0.568099
176	0xbf861d8e	-1.0477769
177	0x3fbcdf7a	1.47557
178	0xc05450b8	-3.3174267
179	0xc07368aa	-3.8032632
180	0xbde79453	-0.113075875
181	0xbefe49ff	-0.4966583
182	0xbf75d3f2	-0.9602653
183	0xbfb3b052	-1.4038184
184	0x3f12c630	0.5733366
185	0xbfe0aa8f	-1.755205
186	0xbfbcd2af	-1.4751796
187	0xbfb4ab97	-1.4114865
188	0x3f866852	1.0500586
189	0xc035ca70	-2.8404808
190	0x3f4c4d30	0.7980528
191	0x3cbada6b	0.022809228
192	0xbea985fb	-0.3311003
193	0xbf2e1595	-0.6800168
194	0xbee0596e	-0.4381823
195	0xbfc9fb87	-1.5779885
196	0xbed08892	-0.40729195
197	0xbe8fd964	-0.28095543
198	0xbf0c2cc9	-0.54755837
199	0xbe4ea2c8	-0.20179284
200	0xbefb5098	-0.49084926
201	0xbd3d6b4b	-0.0462449
202	0xbe200120	-0.15625429
203	0xbe8c11f8	-0.2735746
204	0xbefb077a	-0.49029142
205	0xbe69137c	-0.22761339
206	0xbea1992e	-0.3156218
207	0xbe9ab1b2	-0.30213696
208	0xc062001b	-3.5312564
209	0xbf34e8ff	-0.70668024
210	0xbfffdfcf	-1.9990176
211	0xbfe8fd6e	-1.8202341
212	0xbe8aafee	-0.2708735
213	0xbf308d73	-0.68965834
214	0xbf00a1c6	-0.50246847
215	0xbdff164a	-0.12455423
216	0x3e30f6d3	0.17281656
217	0xc01852a8	-2.380045
218	0xc011b92d	-2.2769272
219	0xbf8a2c91	-1.079485
220	0xbea48434	-0.32132113
221	0xbfab2858	-1.3371687
222	0xbf135370	-0.5754919
223	0xbfc3a4e8	-1.52847
224	0xbdfa2edb	-0.12215968
225	0xbe7dcb8b	-0.24784677
226	0xbf507b2c	-0.81437945
227	0xbee0e91e	-0.43927854
228	0xbf8236ac	-1.0172935
229	0xbfdb21cb	-1.7119688
230	0xbef90ae7	-0.4864113
231	0xbfb5092b	-1.4143423
232	0xbec4e378	-0.38454795
233	0xbe9fdf66	-0.31225127
234	0xbeb19a08	-0.3468783
235	0x3e33885d	0.17532487
236	0xbd9cb460	-0.07651591
237	0xbe6bbc6d	-0.23021097
238	0xbefd7a2a	-0.49507266
239	0xbe612d90	-0.21990037
240	0x3f6272b7	0.8845629
241	0xbfad8234	-1.355536
242	0xbfad79be	-1.3552778
243	0xbfa5e44b	-1.2960294
244	0x40adf100	5.435669
245	0xc0a4e5e0	-5.153061
246	0xbf2aa7df	-0.666624
247	0xc1c1353b	-24.150991
248	0x3d384ba9	0.04499403
249	0x3d5efa25	0.054437775
250	0xbec5fd03	-0.38669595
251	0xbeb5d50d	-0.35514107
252	0xbe96aab4	-0.2942711
253	0xbf4ec7aa	-0.80773413
254	0xbea0bf16	-0.31395787
255	0x3c9c9b00	0.019116879

linear1.bias f4 [256]
0	0xbfc36806	-1.526612
1	0xc00d5eba	-2.2089067
2	0xbefc328d	-0.49257317
3	0xc095df10	-4.6834793
4	0xbeb05ce2	-0.34445864
5	0xc1167721	-9.404084
6	0xc05be924	-3.4361048
7	0xbf2c3929	-0.6727472
8	0xbf640906	-0.8907627
9	0xbf47a2b8	-0.77982664
10	0xbf044bc3	-0.51678103
11	0xbf6b1cb8	-0.91840696
12	0xbf32f387	-0.69902843
13	0xbf3a60fe	-0.7280425
14	0xc034ae7f	-2.8231504
15	0xbf4e7b13	-0.80656546
16	0xc1a287a6	-20.316235
17	0xbfc3bd08	-1.5292063
18	0xc00d2060	-2.205101
19	0xc001d075	-2.0283482
20	0xbf26081d	-0.6485613
21	0xbf435529	-0.7630182
22	0xbf32202c	-0.6958034
23	0xc04d5bb3	-3.2087219
24	0xbf38bb7d	-0.72161084
25	0xbf468ccd	-0.77558595
26	0xbedf8932	-0.4365936
27	0xc1d440b0	-26.531586
28	0xbf996b19	-1.1985809
29	0xbf4bb288	-0.7956929
30	0xc098df94	-4.7772923
31	0xc00b6baf	-2.1784475
32	0xbf631440	-0.88702774
33	0xc05a4c09	-3.4108908
34	0xc034ec96	-2.82694
35	0xbf60976a	-0.8773104
36	0xc1307aed	-11.030011
37	0xbea89ad8	-0.32930636
38	0xbf343cd9	-0.70405346
39	0xbefb2b9c	-0.4905671
40	0xbfb21ac2	-1.3914416
41	0xbff656f7	-1.924529
42	0xc060adcb	-3.5106075
43	0xc0938642	-4.610139
44	0xc00174c2	-2.0227513
45	0xbfca6906	-1.5813301
46	0xc13d1b55	-11.819173
47	0xc1955639	-18.6671
48	0xbfc9fbed	-1.5780007
49	0xbf81ca9e	-1.0139959
50	0xbf67a83e	-0.9049109
51	0xbef7c90d	-0.48395577
52	0xbf88e3d7	-1.0694531
53	0xbf94ac8c	-1.1615157
54	0xbfe3b534	-1.7789674
55	0xbfb34d30	-1.4007931
56	0xbf533532	-0.82503045
57	0xc0c463b9	-6.137173
58	0xbff76f92	-1.9330924
59	0xbf3960f3	-0.7241356
60	0xc10f734b	-8.965648
61	0x3f8fc413	1.1231712
62	0xbf8529b9	-1.0403358
63	0xbe95b963	-0.29243
64	0xbe89f0c0	-0.2694149
65	0xbfc94f6c	-1.5727363
66	0xc194dc9f	-18.607725
67	0xbfb7d8dc	-1.4363055
68	0xbf6f9d03	-0.93598956
69	0xbfafd07b	-1.3735498
70	0xbfef6c0a	-1.8704846
71	0xbff3122e	-1.8989923
72	0xc13d3e61	-11.827729
73	0xbf88767e	-1.0661161
74	0xc101a3d6	-8.102499
75	0xc016f6da	-2.3588166
76	0xc0e1068a	-7.032048
77	0xc10f95c7	-8.974067
78	0xbfb611dc	-1.42242
79	0xbfefef11	-1.8744832
80	0xbf5719c3	-0.84023684
81	0xbff2b4bd	-1.8961407
82	0xc02fd42d	-2.7473252
83	0xbf2238cd	-0.6336792
84	0xc00002df	-2.0001752
85	0xc03b33cf	-2.9250371
86	0xbfb864ed	-1.44058
87	0xbf52d8a9	-0.8236185
88	0xc0806d3b	-4.013334
89	0xc1783f92	-15.51552
90	0xbef914eb	-0.48648772
91	0xbf1c852a	-0.6114069
92	0xbf0627a4	-0.52404237
93	0xbf816f5f	-1.0112113
94	0xbfddba16	-1.7322414
95	0xbfc3c5de	-1.5294759
96	0xbf6783d1	-0.9043551
97	0xbfec71ef	-1.847227
98	0xbf233c24	-0.6376364
99	0xbfa31463	-1.2740597
100	0xc014b9ac	-2.3238325
101	0xc1172dce	-9.448683
102	0xc1d52792	-26.644321
103	0xbee96714	-0.45586455
104	0xbf2634fe	-0.6492461
105	0xbef11a60	-0.47090435
106	0xbf32d351	-0.69853693
107	0xbf10862e	-0.5645474
108	0xbf0c560d	-0.54818803
109	0xbfd95bdf	-1.6981162
110	0xc039a077	-2.900419
111	0xc0bce75b	-5.9032416
112	0xc0d97ba7	-6.7963443
113	0x4016afb8	2.354475
114	0xc0149207	-2.3214128
115	0xc007bad0	-2.1207771
116	0xc03133b5	-2.768781
117	0xbf8e5f77	-1.1122884
118	0xbf0d5c4c	-0.5521896
119	0xbe38fd0c	-0.1806528
120	0xbf97c069	-1.1855594
121	0xbfdb6acf	-1.714197
122	0xbfc7537c	-1.5572352
123	0xbf6432be	-0.89139926
124	0xbf32d03c	-0.6984899
125	0xc0022f63	-2.0341423
126	0xbf3417a1	-0.70348555
127	0xbcbcc580	-0.023043394
128	0xbfc8cca0	-1.5687447
129	0xbf52c6c2	-0.8233453
130	0xbedf2485	-0.4358255
131	0xbe96a650	-0.2942376
132	0xc0015981	-2.021088
133	0xbf31df3b	-0.6948125
134	0xbef8959a	-0.48551637
135	0xc0f75c74	-7.730036
136	0xbfcdae62	-1.6068842
137	0xbe84c73e	-0.2593326
138	0xc1226703	-10.150149
139	0xbfefd98a	-1.8738263
140	0xbf380c1c	-0.7189348
141	0xc12a0ceb	-10.628154
142	0xc02db613	-2.714238
143	0xc132d432	-11.1768055
144	0xbf2d7137	-0.6775088
145	0xbfc7b5b7	-1.560233
146	0xbf76c159	-0.96388775
147	0xbf9cf1be	-1.2261274
148	0xbf29294c	-0.6607864
149	0xbfafbe02	-1.3729861
150	0xc06f4fb2	-3.7392392
151	0xc02ff104	-2.7490854
152	0xbefaf9b4	-0.49018633
153	0xbfb41edd	-1.4071919
154	0xc009b153	-2.151448
155	0xbf4b9cc2	-0.7953607
156	0xc01056ec	-2.2553053
157	0xbfbf29e7	-1.4934663
158	0xc128cd7f	-10.55017
159	0xbf8a8fc0	-1.0825119
160	0xc02960b0	-2.6465263
161	0xbedfe79f	-0.437314
162	0xbfb58457	-1.4181012
163	0xc12c1fcf	-10.757766
164	0xbf78fadb	-0.97257775
165	0xbfbe4c8d	-1.4867111
166	0x3f5ae364	0.8550322
167	0xc003fb9a	-2.0622315
168	0xbfd66eb9	-1.675254
169	0xbe99b118	-0.30017924
170	0xc04fad75	-3.244962
171	0xc03948ed	-2.895076
172	0xbf5bd78e	-0.85875785
173	0xbf4fd5ba	-0.81185496
174	0xbf1de0ae	-0.6167096
175	0xc1565eda	-13.398157
176	0xbfb7e1a2	-1.4365733
177	0xc033c2f7	-2.8087747
178	0xbfc8a005	-1.5673834
179	0xbf7bb3bd	-0.98321134
180	0xbf846478	-1.0343161
181	0xc0bbd9f4	-5.8703556
182	0xbedab427	-0.4271557
183	0xc1468364	-12.407078
184	0xbfba1125	-1.4536482
185	0xc069193b	-3.642165
186	0xbee70bb8	-0.45126128
187	0xc197202f	-18.890715
188	0xbf38887c	-0.7208326
189	0xbf871700	-1.0553894
190	0xbee5658c	-0.44804037
191	0xbf216a03	-0.63052386
192	0xbf951ac1	-1.164879
193	0xbf3b818b	-0.7324454
194	0xc1e35deb	-28.420858
195	0xbee60568	-0.44926
196	0xbfe50ebd	-1.7895123
197	0xc0b9a8c0	-5.8018494
198	0xbf5b3a91	-0.8563624
199	0xc011b36d	-2.2765763
200	0xc0513f8e	-3.269504
201	0xbf1924d9	-0.5982185
202	0xbf2d5b8e	-0.67717826
203	0xc0699157	-3.6494958
204	0xbffee984	-1.9915013
205	0xc12e5c36	-10.897512
206	0xc0bb2e37	-5.8493915
207	0xc012f0f8	-2.2959576
208	0xc0270c0a	-2.6101098
209	0xbff1dab6	-1.889487
210	0xc04300ed	-3.0469315
211	0xbe8d26af	-0.27568576
212	0xbef82abd	-0.48470107
213	0xc0258299	-2.586096
214	0xc05bccdc	-3.4343786
215	0xbf0caf9e	-0.5495547
216	0xbf253202	-0.6452943
217	0xc0bfdb94	-5.995554
218	0xbfbc6f12	-1.4721396
219	0xbf527aea	-0.822188
220	0xbf6ecea4	-0.9328406
221	0xc04f93f6	-3.2434058
222	0xbffcff2d	-1.9765373
223	0xbf77718d	-0.9665764
224	0xbee10106	-0.43946093
225	0xbf24831b	-0.6426255
226	0xbfd9fced	-1.7030312
227	0xc02b6507	-2.6780412
228	0xbed832aa	-0.42226154
229	0xbecdb23f	-0.40175053
230	0xbf1f2de1	-0.6217938
231	0xc0128f8e	-2.290012
232	0xbf604aa3	-0.87613887
233	0xbf0e706f	-0.5564031
234	0xbf63c1e9	-0.8896776
235	0xbe319764	-0.17342907
236	0xbf347aa2	-0.7049962
237	0xbfe97e80	-1.824173
238	0xbfaff48a	-1.3746502
239	0xc0ed2a54	-7.411417
240	0xc14252ec	-12.145245
241	0xbeb418d0	-0.3517518
242	0xbf5730bd	-0.84058744
243	0xbf06d8a7	-0.52674335
244	0xc003524d	-2.0518982
245	0xbfe02280	-1.7510529
246	0xbf010731	-0.504016
247	0xbff90358	-1.9454145
248	0xbede1204	-0.4337312
249	0xbf2ac881	-0.66712195
250	0xbefcc5f3	-0.49369773
251	0xbf3da605	-0.7408145
252	0xc09081a3	-4.515825
253	0xbef049e5	-0.46931377
254	0xc12a4f07	-10.644294
255	0xc03343c3	-2.8010108

linear2.weight f4 [256, 256]
0	0xbd7b70de	-0.061386935
1	0x3cc84cfc	0.024450772
2	0xbef879b5	-0.48530355
3	0xbd3f3082	-0.04667712
4	0xbef4c1ba	-0.47804052
5	0x3c854430	0.016267866
6	0xbc965c24	-0.018354483
7	0x3d036260	0.03207624
8	0x3d48374c	0.04888086
9	0xbf009541	-0.50227743
10	0xbf0d7155	-0.55251056
11	0x3d004a08	0.0313206
12	0xbeed3f88	-0.46337533
13	0xbf039cd7	-0.51411194
14	0x3c98123c	0.018563382
15	0x3ca82cbc	0.020529144
16	0xbf0963c6	-0.5366787
17	0xbd4c01be	-0.04980635
18	0x3a00ac00	0.00049084425
19	0x3d3dc7ac	0.046333
20	0xbf0a9c06	-0.5414432
21	0x3d1fd952	0.039025612
22	0xbd6289b2	-0.055307098
23	0xbd429c18	-0.047512144
24	0x3c8ca03c	0.01716625
25	0x3d0a7cd0	0.033810437
26	0x3cf5ef50	0.03002134
27	0xbf00c1d1	-0.5029574
28	0xbd0680b2	-0.032837577
29	0x3d7c1cde	0.061550967
30	0xc008e263	-2.1388175
31	0x3adc88c0	0.0016825423
32	0xbd6cb0f2	-0.057785936
33	0xbd266a48	-0.0406287
34	0xbf0ea646	-0.55722463
35	0x3d011768	0.031516463
36	0xbeffedd7	-0.49986145
37	0xbc9ac690	-0.01889351
38	0xba01d780	-0.00049530715
39	0x3ca4f14c	0.02013459
40	0x3d6d0878	0.057869405
41	0xbefd75cc	-0.49503934
42	0x3d41501a	0.04719553
43	0xbacfb500	-0.0015846789
44	0xbf058b9a	-0.5216614
45	0xbeffd45d	-0.49966708
46	0xbd68954c	-0.056783006
47	0xbef53579	-0.4789236
48	0x3d54fb2e	0.051997356
49	0x398bf200	0.0002669245
50	0xbf042167	-0.5161347
51	0xbd7e03d4	-0.06201537
52	0x3c7a5f58	0.015281521
53	0xbce7f58c	-0.028315328
54	0x3d5c51fa	0.053789116
55	0x3d3c2826	0.045936726
56	0xbee998bf	-0.4562435
57	0xbf0468e2	-0.5172254
58	0xbf018f10	-0.5060892
59	0xbc5741d0	-0.0131382495
60	0x3ca8b250	0.020592839
61	0xbeff7573	-0.49894294
62	0xbf01116b	-0.504172
63	0x3d12aa8c	0.035807177
64	0xbd643838	-0.055717677
65	0xbf070c22	-0.5275289
66	0xbf02a3a8	-0.5103097
67	0xbf07c804	-0.53039575
68	0x3c1d75d8	0.009610616
69	0xbef9dcd2	-0.48801285
70	0xbee6de97	-0.45091698
71	0xbd0fa3ee	-0.035068445
72	0xbef7faf6	-0.48433656
73	0xbd57ac96	-0.052654825
74	0x3bd7c940	0.00658527
75	0xbefc343e	-0.49258608
76	0xbf129215	-0.57254153
77	0xbcbc0514	-0.02295164
78	0xbd0de71a	-0.034644224
79	0xbd1d94e2	-0.038472064
80	0xbef31eae	-0.47484344
81	0xbcf61004	-0.030036934
82	0x3ae1c6c0	0.001722537
83	0xbef52a56	-0.47883862
84	0xbafd80c0	-0.0019340739
85	0xbc0e4e28	-0.008685626
86	0xbf10d435	-0.565738
87	0xbb829610	-0.003985174
88	0x3b5933e0	0.0033142492
89	0xbc8e1780	-0.01734519
90	0x3bbcfad0	0.005767204
91	0xbefabb54	-0.48971045
92	0xbee6c106	-0.4506914
93	0xbcfe4310	-0.031037837
94	0x3d00b2fa	0.031420685
95	0xbd3d2298	-0.04617557
96	0xbf022137	-0.5083193
97	0xbf124b9d	-0.57146627
98	0xbb845440	-0.0040383637
99	0xbd3a2c1e	-0.04545223
100	0xbf102560	-0.5630703
101	0x3d294e58	0.04133448
102	0x3b8bc0d0	0.0042649284
103	0xbd0b2046	-0.033966325
104	0xbd34914c	-0.04408388
105	0xbee8be98	-0.45457911
106	0x3cb6daa0	0.022321045
107	0xbf00a229	-0.50247437
108	0x3d1f3cb6	0.038876258
109	0xbef1362f	-0.4711165
110	0xbbfb4be0	-0.007668957
111	0xbd7ad570	-0.061238706
112	0xbd327f7c	-0.04357861
113	0xbf00eb9e	-0.50359523
114	0xbd3e44a0	-0.046452165
115	0x3c55be78	0.0130459
116	0x3d3b82b0	0.04577893
117	0x3d0d29a2	0.034463532
118	0xbc4b2660	-0.012399286
119	0xbef11a39	-0.4709032
120	0x3bb34690	0.005471058
121	0xbf00d0e6	-0.50318754
122	0xbf077a90	-0.5292139
123	0x3bb35fb0	0.0054740533
124	0x3bc7abf0	0.0060934946
125	0xbd74ec96	-0.05979594
126	0xbf115130	-0.5676451
127	0xbc944c0c	-0.018102668
128	0xbf0d3e11	-0.5517283
129	0xbc8d3af8	-0.017240033
130	0xbef81946	-0.48456782
131	0x39fb0f00	0.00047885627
132	0xbf06cd13	-0.5265667
133	0xbd67e410	-0.05661398
134	0xbd0a95e2	-0.033834346
135	0x3c6a7f58	0.014312588
136	0xbd6cd102	-0.057816513
137	0xbf0a6b76	-0.5407022
138	0xbd2d0a58	-0.042246193
139	0xbf0f35fb	-0.5594174
140	0xbf09ea9d	-0.53873616
141	0xbf0bfb72	-0.5468055
142	0x3d34243a	0.04397986
143	0xbefcd5a1	-0.49381736
144	0xbc630ad0	-0.013857558
145	0xbd6d1b26	-0.05788722
146	0xbf0575e9	-0.5213304
147	0x3d1ae754	0.037818268
148	0xb9768800	-0.00023511052
149	0x3c885498	0.0166419
150	0xbd212eae	-0.039351158
151	0x3d3ad008	0.04560855
152	0x3b57f0c0	0.0032949895
153	0x3c933728	0.017970636
154	0x3b0feca0	0.0021961108
155	0xbf12f3b2	-0.574031
156	0x3d25ad46	0.04044845
157	0x3b057040	0.0020361096
158	0x3d60b2de	0.05485808
159	0xbcfd44f8	-0.030916676
160	0x3cc6efb4	0.024284221
161	0xbeeaecf9	-0.4588392
162	0x3d4e335e	0.050341956
163	0xbee9a937	-0.45636913
164	0xbd70ce70	-0.058790624
165	0xbf03823d	-0.513706
166	0xc00647ac	-2.0981245
167	0xb9cd5900	-0.00039166957
168	0xbcc4df84	-0.024032362
169	0xbd71f3de	-0.05907046
170	0xbf108c8b	-0.5646445
171	0xbd789854	-0.060692146
172	0xbcc8d938	-0.02451764
173	0xbca12b90	-0.019674093
174	0x3d2d4958	0.042306274
175	0x3d5fddae	0.05465477
176	0xbc50f7f8	-0.012754433
177	0xbbae1cd0	-0.0053134933
178	0x3d172494	0.036900118
179	0xbeebf184	-0.460827
180	0xbee7008f	-0.45117614
181	0xbd65aa14	-0.056070402
182	0xbd57a15c	-0.05264412
183	0xbf07e43d	-0.5308264
184	0x3cd3c0e4	0.025848813
185	0xbca7bea4	-0.020476647
186	0xbf0988a7	-0.5372414
187	0xc00def33	-2.2177246
188	0xbd0b1440	-0.03395486
189	0x3cacc308	0.021089092
190	0xbd57aa54	-0.052652672
191	0x3c8c9084	0.017158754
192	0x3c7d2cc8	0.015452571
193	0xbf09368f	-0.53598875
194	0xbd37e9ee	-0.044900827
195	0xbd20c44c	-0.039249703
196	0xbd1936e4	-0.037405863
197	0xbd14959c	-0.03627549
198	0xbd312e78	-0.043257207
199	0xbf0818d3	-0.5316288
200	0x3d367e50	0.044554055
201	0x3ce593e4	0.028024621
202	0x3c630900	0.013857126
203	0xbc7bd408	-0.015370376
204	0xbf09288c	-0.53577495
205	0xbf040dbc	-0.51583457
206	0xbaa8a440	-0.0012866333
207	0xbeeab8e4	-0.45844185
208	0x3d41b0ae	0.047287636
209	0xbf04f133	-0.5193054
210	0x3d28d782	0.04122115
211	0xbf008179	-0.5019756
212	0xbf117666	-0.56821287
213	0xbd5daa40	-0.05411744
214	0xbefc7843	-0.49310502
215	0xbf0d798b	-0.55263585
216	0xbd1105e4	-0.03540601
217	0xbc5d5b48	-0.013510533
218	0xbbd90310	-0.0066226795
219	0x3cf39d24	0.029738016
220	0xbd2cf5fc	-0.042226776
221	0xbd7c057c	-0.061528668
222	0x3d749500	0.05971241
223	0x3d5fee1e	0.054670446
224	0xbcef9b90	-0.029248983
225	0xbd47588e	-0.048668437
226	0x3c98e4f4	0.01866386
227	0x3c6f7540	0.014615357
228	0x3cbee0c8	0.023300543
229	0xbcf62ef8	-0.030051693
230	0xbf0fa66b	-0.5611331
231	0xbd24674a	-0.040137567
232	0xbd2b1b36	-0.041773997
233	0xbce6bc74	-0.028166033
234	0x3c8d3c90	0.017240793
235	0xbd2f92a4	-0.042864457
236	0xbf08f752	-0.5350238
237	0xbeee2724	-0.46514237
238	0x3bd3dd20	0.006465569
239	0xbf00d1f0	-0.5032034
240	0xbeeb3da4	-0.45945466
241	0xbefa2a7f	-0.48860547
242	0xbefbb6f5	-0.49163023
243	0x3c90a1ec	0.017655335
244	0x3b49c920	0.0030790046
245	0x3baf60f0	0.005352132
246	0x3d5d558a	0.054036655
247	0xbcbaedcc	-0.022818469
248	0xbf060a92	-0.5235988
249	0x3d37ba90	0.044855654
250	0x3cee4db8	0.029089794
251	0xbcacdc58	-0.021101162
252	0xbd3a4804	-0.045478836
253	0xbd2126c8	-0.039343625
254	0xbf0c81e5	-0.54885703
255	0xbeeec942	-0.46637923

linear2.bias f4 [256]
0	0xc02beacc	-2.6862059
1	0xbf14f42a	-0.58185065
2	0xbfac9434	-1.3482728
3	0xc04c62ee	-3.1935382
4	0x411dc52f	9.860641
5	0xbf2249eb	-0.6339404
6	0xbfd86d5b	-1.6908373
7	0xc0384b8c	-2.879611
8	0xbf0e4dd8	-0.5558753
9	0xbfa8c71e	-1.3185766
10	0xc0bcc072	-5.898492
11	0xc174a299	-15.289697
12	0xc026ac17	-2.6042535
13	0xbe9eeaef	-0.31038615
14	0xbff4fc2a	-1.9139454
15	0xc0297feb	-2.6484325
16	0xbf73d6d9	-0.95249707
17	0xbfdf7a50	-1.7459202
18	0xbf0a1386	-0.5393604
19	0xc06780c2	-3.6172338
20	0xc0a4f69b	-5.155103
21	0xc0366930	-2.8501701
22	0xbfd9718b	-1.6987776
23	0xc0ae2b78	-5.4428062
24	0xc03081b7	-2.7579172
25	0xc0573200	-3.3624268
26	0xc0e8ea51	-7.278603
27	0xc0026654	-2.0374956
28	0xbfbfaf19	-1.497531
29	0xbf809159	-1.0044357
30	0xbf1efba8	-0.62102747
31	0xbf223e8f	-0.63376707
32	0xc002ccbc	-2.043746
33	0xc03b1d63	-2.9236686
34	0xbf13b6d3	-0.5770084
35	0xbf07c93c	-0.53041434
36	0xc0f22fc6	-7.5683317
37	0xc047183a	-3.1108537
38	0xc05d5970	-3.4585838
39	0xc024ae24	-2.5731287
40	0xbf5bfb3f	-0.85930246
41	0xc049fc25	-3.1560147
42	0xbf10a82f	-0.5650663
43	0xc00f2d0f	-2.2371252
44	0xbf09cd29	-0.53828675
45	0xc034d5ef	-2.8255575
46	0xc0357e0e	-2.8358188
47	0xbfe5ca39	-1.7952338
48	0x40b84706	5.75867
49	0xc05f1324	-3.4855433
50	0xc0357377	-2.8351724
51	0xc0294fa4	-2.6454859
52	0xc00a5481	-2.1614077
53	0xc04b18e5	-3.1733944
54	0xbfea5f15	-1.8310267
55	0xbef8ec89	-0.48617962
56	0xc0671033	-3.6103637
57	0xbf17acea	-0.5924822
58	0xbf065e25	-0.52487403
59	0xbfe8c831	-1.8186094
60	0xbfc6e921	-1.5539895
61	0xbf9a2d01	-1.2044984
62	0xc0238643	-2.5550697
63	0xc016bddd	-2.3553383
64	0xc03503d6	-2.8283591
65	0x4197f2a3	18.993475
66	0xbf8a6e9d	-1.0815006
67	0xbfd13414	-1.6344018
68	0xc0523cec	-3.2849684
69	0xc037c4de	-2.8713908
70	0xbf284eb4	-0.6574509
71	0xbff904b5	-1.9454561
72	0xc0a323d8	-5.0981255
73	0xc04393aa	-3.0558877
74	0xc00e2b62	-2.2213979
75	0xc0599727	-3.3998506
76	0xbfc6fe6d	-1.5546395
77	0xc16b53eb	-14.707988
78	0xc12a7dc3	-10.655704
79	0x40ecb62b	7.3972373
80	0xc0929da1	-4.581742
81	0xbfc050c4	-1.5024648
82	0xc0160900	-2.3442993
83	0xc10ccd30	-8.800095
84	0xbfacc3ce	-1.3497255
85	0x4019febb	2.4061725
86	0xc0b334ad	-5.60018
87	0xc135a8d9	-11.353723
88	0xc0d1d496	-6.5572004
89	0xbf306c2c	-0.6891506
90	0xbfd8ae4c	-1.6928191
91	0xbf2c9f9b	-0.6743104
92	0xc0004484	-2.0041819
93	0xc06fdb2b	-3.747752
94	0xbfa0ec17	-1.2572049
95	0xbf10b9d1	-0.56533533
96	0x41139e93	9.226214
97	0x3f71fccc	0.9452636
98	0xc03b9fa3	-2.9316185
99	0xbfac6975	-1.3469683
100	0xc09e52f6	-4.947627
101	0xc014e998	-2.3267574
102	0xc00d878f	-2.2113988
103	0xbfcdc759	-1.6076461
104	0xbfef857b	-1.871261
105	0xc000b718	-2.0111752
106	0x410392f1	8.223374
107	0xc0380f00	-2.8759155
108	0xc03a963e	-2.91542
109	0xc0797e44	-3.8983316
110	0xc0e0de8d	-7.027167
111	0xc0caf3bb	-6.3422523
112	0xbf10f221	-0.5661946
113	0xc02c4fd4	-2.6923723
114	0xc0508de2	-3.2586598
115	0xc0c4b147	-6.1466403
116	0xc12a64d7	-10.649619
117	0xc0bff11f	-5.9981837
118	0xbe542724	-0.20718056
119	0xc036b3fd	-2.8547356
120	0x41e389b6	28.442242
121	0xbf275da9	-0.6537729
122	0xbfbf58a8	-1.4948931
123	0xc0e695b5	-7.205775
124	0xbfc9c18e	-1.5762193
125	0xc03d8566	-2.961267
126	0xbfbd86a1	-1.480671
127	0x41304d31	11.018846
128	0xbfeb1595	-1.8365961
129	0x4160359c	14.013088
130	0xc02da00b	-2.7128932
131	0xbfe6be9a	-1.8026917
132	0xbfff8386	-1.9962013
133	0xbfd80f0e	-1.6879594
134	0xc0404b4b	-3.0045955
135	0xbf1cabca	-0.6119963
136	0xbf106851	-0.56409174
137	0x409d3e2e	4.9138403
138	0xbfc31c4c	-1.524301
139	0xbff83983	-1.9392551
140	0x41aa6af4	21.302223
141	0xc0d3205b	-6.5976996
142	0xc03762d9	-2.8654082
143	0xc03b1b0b	-2.9235256
144	0xbfb1d4dd	-1.3893086
145	0x417a612c	15.648724
146	0xbfa8ddf1	-1.3192731
147	0xc029157e	-2.6419368
148	0xbedf2839	-0.43585375
149	0xc028c777	-2.6371744
150	0xbefcf736	-0.49407357
151	0xc09de5ba	-4.934293
152	0xbf157452	-0.58380616
153	0xbf11b7ba	-0.5692097
154	0x415e5e8c	13.898083
155	0xc005d251	-2.0909617
156	0xc0390177	-2.8907144
157	0xc02e5a1f	-2.7242506
158	0xc05ab326	-3.4171844
159	0xc0ab4713	-5.352426
160	0xbfeb96ca	-1.8405392
161	0xc015fedc	-2.3436804
162	0xbf9bf5f8	-1.2184439
163	0xc105ba68	-8.358009
164	0xc0569594	-3.3528795
165	0xc02c90e9	-2.6963446
166	0x40c16497	6.043529
167	0xc00c4df8	-2.1922588
168	0x4206e213	33.720776
169	0xc1713f5b	-15.077968
170	0xbfa59d17	-1.2938565
171	0xc0169439	-2.3527968
172	0xc038973f	-2.8842313
173	0xc05f6ab0	-3.4908867
174	0xc09b84d1	-4.859963
175	0xc0268a8d	-2.6022065
176	0xc041e526	-3.029611
177	0xbff1a11e	-1.8877294
178	0xc1583483	-13.51282
179	0xc0f4ecd1	-7.6539083
180	0xbfeb9a68	-1.8406496
181	0xbfbb4238	-1.4629583
182	0xc0423173	-3.0342681
183	0x3e99bbed	0.30026188
184	0xc0f97d4b	-7.7965446
185	0xc0587e5d	-3.3827126
186	0xbfa91eae	-1.3212488
187	0xc097908d	-4.7363954
188	0xc09cd1c0	-4.9006042
189	0xc0dca960	-6.8956757
190	0xc02d59bb	-2.7086017
191	0xbf4735ea	-0.7781664
192	0xbf1f025d	-0.6211298
193	0xc05a52dc	-3.4113073
194	0xc03691f9	-2.8526595
195	0xbfacebbb	-1.3509439
196	0xc178260c	-15.509289
197	0xc04b1c7d	-3.1736138
198	0xc09814b7	-4.7525287
199	0xbefeaf5b	-0.4974316
200	0xc0327a19	-2.7887022
201	0x425bcfdd	54.95299
202	0xc0d89388	-6.768009
203	0xc1f5003d	-30.625116
204	0xbfb1fd3a	-1.3905404
205	0xc006ff38	-2.1093273
206	0xc03b9c2e	-2.9314075
207	0xc0858a41	-4.1731267
208	0xc056a357	-3.3537195
209	0xbfe237de	-1.7673299
210	0xbf024200	-0.5088196
211	0x414d3db6	12.827566
212	0xc02ec8a9	-2.7309973
213	0xbef9ab89	-0.48763683
214	0xc05962fd	-3.3966668
215	0x40a3dae3	5.1204696
216	0xbefc82f5	-0.49318662
217	0xc080c8cc	-4.0245113
218	0x408730d6	4.2247114
219	0xc0afc709	-5.4930463
220	0xbf1fbd3c	-0.62398124
221	0xc018363a	-2.3783097
222	0x41de3222	27.774479
223	0xc032d27c	-2.794097
224	0xbf5eb017	-0.8698744
225	0xc0aab4ab	-5.334554
226	0xc19dd32e	-19.728115
227	0xc0dfe936	-6.997218
228	0xc0321d04	-2.783021
229	0xc03e66af	-2.9750173
230	0xbf3cde7d	-0.7377699
231	0xbfb109cd	-1.3831116
232	0xbf236afc	-0.6383512
233	0xc030fd03	-2.7654426
234	0xbfdeca26	-1.7405441
235	0xc02bcea7	-2.684488
236	0xc02bb1fb	-2.682738
237	0xbfd96666	-1.6984375
238	0xbfd1523f	-1.6353225
239	0xc02d95d3	-2.7122695
240	0x4154ba39	13.2954645
241	0xbfbd14ac	-1.4771934
242	0xc00c07ac	-2.1879683
243	0xc03bedba	-2.9363847
244	0xc0fc394e	-7.881995
245	0xc06ef4f5	-3.733701
246	0xc025f053	-2.5927932
247	0x41b9a8be	23.207394
248	0xc102ee6c	-8.183208
249	0xbeecc027	-0.4624035
250	0xc12b3b8a	-10.702036
251	0xbfcc146c	-1.5943732
252	0xbfbae03e	-1.4599683
253	0xbf14794b	-0.5799758
254	0xc033bce9	-2.8084052
255	0xbff8e3aa	-1.9444478

linear3.weight f4 [4, 256]
0	0xc008c457	-2.1369836
1	0xbea583cb	-0.32327113
2	0xbec40e19	-0.38292006
3	0xbf0e1b00	-0.5550995
4	0xc10fcd09	-8.987557
5	0xbeff1ea4	-0.49828064
6	0xbf046ef6	-0.5173181
7	0x3f14e34f	0.58159345
8	0xbe81b913	-0.25336513
9	0x3f62b417	0.88556045
10	0xbf53f606	-0.82797277
11	0xc11ad11b	-9.676051
12	0xc00b0ca5	-2.1726468
13	0xbe96a312	-0.29421288
14	0x3ee1731c	0.44033134
15	0x3f0f4b7b	0.5597455
16	0xbe9058e7	-0.28192827
17	0xbf413668	-0.7547364
18	0xbef1fa4f	-0.47261283
19	0x40d8bd90	6.77314
20	0x3dc407bd	0.095717885
21	0xbfdc2a3d	-1.720039
22	0xbeb4c9c3	-0.35310182
23	0x40c909fd	6.2824693
24	0x3f57969d	0.8421419
25	0x3c0930a8	0.008373417
26	0x3ca87dab	0.020567736
27	0x3fc8e004	1.5693364
28	0xbebcfa5d	-0.36909762
29	0xbeb4f5e9	-0.35343865
30	0xbc77f630	-0.015134379
31	0x3f0f5782	0.559929
32	0x3e5b7ee4	0.21435124
33	0x3feb43ff	1.8380126
34	0xbeac8a16	-0.336991
35	0xbef02dec	-0.46910036
36	0xbe261d4c	-0.16222113
37	0xbeb80bd1	-0.35946515
38	0xbfeb33fd	-1.837524
39	0xbc3d6391	-0.011559383
40	0x3f7d5ede	0.9897288
41	0xbf2de9a5	-0.6793464
42	0x3f186985	0.5953601
43	0xbe9e6166	-0.30933684
44	0xbef5de0e	-0.48020977
45	0x40908dae	4.517295
46	0x3f0f0a12	0.5587474
47	0xbfbbc292	-1.4668753
48	0xc0f7fe52	-7.749795
49	0x3fbc70dc	1.4721942
50	0xbfda62fd	-1.7061459
51	0x3f1dfaee	0.61711013
52	0xbd8604c6	-0.06543879
53	0xbb343140	-0.0027495176
54	0xbfaadf9c	-1.334949
55	0xbf011e79	-0.5043712
56	0x3f12e976	0.57387483
57	0x3f0dd472	0.5540229
58	0x3bf2eef0	0.0074137375
59	0xbcd6d650	-0.026225239
60	0xbec7dd5d	-0.39036074
61	0xbe87f7d9	-0.2655628
62	0xc00c2de2	-2.1903005
63	0xbe4e2610	-0.20131707
64	0x4034b1f7	2.823362
65	0xc0a27c18	-5.077648
66	0x3ff8c44b	1.9434904
67	0x3f077b48	0.5292249
68	0xbd47a4ec	-0.048741266
69	0x3f134aab	0.5753581
70	0xbea51308	-0.32241082
71	0x3f0d7529	0.552569
72	0x3dfef7d7	0.124496154
73	0xbf8ca180	-1.0986786
74	0xbdf7c658	-0.12098378
75	0x3cfefc1c	0.031126074
76	0xbebd97e0	-0.37029934
77	0x409752b0	4.7288437
78	0xbeb94d1d	-0.36191645
79	0xbf885bfa	-1.0653069
80	0xc07e50b5	-3.973676
81	0xbeb2e6ec	-0.34941804
82	0x3f67703d	0.9040564
83	0xbf7013a9	-0.9378
84	0x3f0652da	0.5247017
85	0x3f35a99b	0.7096192
86	0xbe7182b4	-0.23585016
87	0x41079346	8.473455
88	0xbf7b3ef6	-0.98142946
89	0xbeebe8f7	-0.46076176
90	0xbf8adb56	-1.0848186
91	0xbe901520	-0.28141117
92	0xc0079c1d	-2.1189034
93	0x3faeb111	1.3647786
94	0x3d21a52c	0.03946416
95	0xbe96a2ad	-0.29420987
96	0xbf5007ec	-0.8126209
97	0x40bcc9d8	5.899639
98	0xbfdf3c6f	-1.7440318
99	0x3ef3fe79	0.47655085
100	0x3f5ad946	0.8548778
101	0x3d41b4a1	0.0472914
102	0x3ff96d1d	1.9486424
103	0xbebf5b47	-0.37374327
104	0x3f48e7df	0.7847881
105	0xbf26c19b	-0.6513917
106	0xbfc14479	-1.5099021
107	0x4035a385	2.8381054
108	0xbfdcbaa6	-1.724446
109	0x401eb071	2.4795191
110	0x3eaf0324	0.34182084
111	0x3f094b27	0.536303
112	0xbee9d2a6	-0.45668525
113	0x3e93056f	0.28715083
114	0x402f6136	2.7403083
115	0xbf181b2a	-0.5941645
116	0x4098ae1d	4.771254
117	0x3e7b7204	0.24555212
118	0xbe2208d3	-0.15823679
119	0x40342adf	2.8151166
120	0x4071d5c9	3.7786734
121	0x3f18c545	0.5967601
122	0xbedb8365	-0.42873684
123	0x3ff48a17	1.9104642
124	0x3e309567	0.17244492
125	0x3fd0f794	1.6325555
126	0xbea539d8	-0.32270694
127	0xc1412ebd	-12.073911
128	0xbf2dd526	-0.67903364
129	0xc0b79439	-5.7368436
130	0x3f0ddfd0	0.55419636
131	0xbf15caca	-0.58512557
132	0x3d39926a	0.045305647
133	0xbe3ddd27	-0.18541394
134	0x3f0e86fd	0.55674726
135	0xbe93506b	-0.28772292
136	0xbefca7cb	-0.49346766
137	0x3e0ebda4	0.1393953
138	0xbeaaa1fc	-0.3332671
139	0xbf49aaa3	-0.78775996
140	0xc0aa5c27	-5.323749
141	0xbd82b4e3	-0.06382158
142	0xbfdb948e	-1.715471
143	0xbfd81c4d	-1.6883637
144	0x3ec06fb7	0.37585232
145	0x3ec436e2	0.38323122
146	0xc1189875	-9.537221
147	0x400a36c0	2.1595917
148	0xbe9db2fa	-0.3080061
149	0x3ed04a6c	0.4068178
150	0xbdf784a6	-0.120858476
151	0x409a086d	4.8135285
152	0xbea25089	-0.31702068
153	0xbeeaaf65	-0.4583694
154	0xc0faed47	-7.8414645
155	0xbfb1a8c6	-1.387963
156	0xbfdd0cf1	-1.7269574
157	0xc01e5ab4	-2.474286
158	0x3fd49ad9	1.6609756
159	0x3f975547	1.18229
160	0xbfd6bb7b	-1.6775964
161	0x3d75b048	0.059982568
162	0xbecf76ac	-0.40520227
163	0x40e3d315	7.119517
164	0x40277a9d	2.6168587
165	0x3f25691e	0.6461352
166	0xc00eab2a	-2.229197
167	0x3fd40bd5	1.6566111
168	0x3fdd002d	1.7265679
169	0x3fe028e0	1.7512474
170	0x3eb81a7b	0.35957703
171	0x3e803cbb	0.25046334
172	0xbfd9fe5d	-1.703075
173	0x405c22cd	3.439624
174	0x400f01d4	2.2344866
175	0x404d4cb1	3.2078059
176	0xbf70f07c	-0.9411695
177	0xbfe72476	-1.8058002
178	0x40d9afe5	6.8027215
179	0xbe7f36a6	-0.2492319
180	0xbf9d575c	-1.2292285
181	0xbebda9be	-0.37043566
182	0xbfc44141	-1.5332414
183	0xc14a0cf8	-12.628166
184	0x3d12c7f2	0.035835214
185	0xbef6854f	-0.4814858
186	0xbf039908	-0.5140538
187	0x40c646b2	6.19613
188	0xbe88c410	-0.26712084
189	0x3e82b9c0	0.2553234
190	0xc02c2a7b	-2.6900928
191	0xc061fedf	-3.531181
192	0xbe9b05b2	-0.30277783
193	0x40367f4d	2.8515198
194	0x3f0c3530	0.5476866
195	0xc007de6b	-2.1229503
196	0x3f64cab9	0.8937183
197	0xc001c7d9	-2.0278227
198	0x3f028008	0.5097661
199	0xbeb33b4a	-0.3500617
200	0x3f1849fe	0.59487903
201	0xc0c83281	-6.256165
202	0x3f0e739c	0.55645156
203	0x41710e83	15.066043
204	0x3f08b191	0.53395945
205	0x401002e3	2.2501762
206	0x3f0e7af8	0.55656385
207	0x400f4183	2.2383735
208	0xbe18da34	-0.14926988
209	0xbfb437b5	-1.40795
210	0xbd16b4f0	-0.03679365
211	0x4005ca09	2.0904562
212	0x3e1de4a4	0.1541925
213	0xbea15294	-0.31508315
214	0x40596264	3.3966303
215	0x40edf5e8	7.436268
216	0xbef45271	-0.47719148
217	0x40938d63	4.611009
218	0xbf971c2c	-1.1805472
219	0xbdfa0153	-0.12207284
220	0xbf1f5402	-0.6223756
221	0xbfca6f4c	-1.5815215
222	0x40133344	2.300004
223	0xbe46195a	-0.19345608
224	0xbcd4bd14	-0.025969066
225	0xbe6c64b5	-0.23085292
226	0x41610347	14.0633
227	0x3de4d80b	0.111740194
228	0xbfd842a9	-1.6895343
229	0xbc01fa28	-0.007933177
230	0xbee90a86	-0.4551584
231	0xbf02b3c3	-0.51055545
232	0xbf781a07	-0.96914715
233	0xbc78628a	-0.015160212
234	0xbfc6f20c	-1.5542617
235	0x3f1173bf	0.5681724
236	0x3effb009	0.49938992
237	0x40e6d4e3	7.213487
238	0xbeefa74c	-0.46807325
239	0x3f0a9f8f	0.5414972
240	0xc07dce47	-3.9657152
241	0xbea659cf	-0.32490394
242	0xbf290071	-0.660163
243	0x3f1a50dd	0.6027964
244	0x3e8d43d0	0.275908
245	0x4005af26	2.0888152
246	0xbf7d98c9	-0.99061257
247	0x413e733a	11.9031315
248	0x4099eb23	4.809953
249	0xbe9202e6	-0.28517836
250	0xc160f94e	-14.060865
251	0xc04cbbec	-3.1989698
252	0xbf062bcf	-0.52410597
253	0x3f186827	0.59533924
254	0xbf4b7d24	-0.79487824
255	0xbef528de	-0.47882742

linear3.bias f4 [4]
0	0xc14e304d	-12.886792
1	0xc007b320	-2.120308
2	0xc0b10985	-5.532412
3	0x40de0823	6.9384933
